…
2025-10-05 21:22:28,308 - CentralACGan - INFO - __________________________________________________________________________________________________
2025-10-05 21:22:28,309 - CentralACGan - INFO -  Layer (type)                Output Shape                 Param #   Connected to
2025-10-05 21:22:28,309 - CentralACGan - INFO - ==================================================================================================
2025-10-05 21:22:28,309 - CentralACGan - INFO -  input_2 (InputLayer)        [(None, 1)]                  0         []
2025-10-05 21:22:28,309 - CentralACGan - INFO -
2025-10-05 21:22:28,309 - CentralACGan - INFO -  embedding (Embedding)       (None, 1, 256)               512       ['input_2[0][0]']
2025-10-05 21:22:28,309 - CentralACGan - INFO -
2025-10-05 21:22:28,309 - CentralACGan - INFO -  input_1 (InputLayer)        [(None, 256)]                0         []
2025-10-05 21:22:28,309 - CentralACGan - INFO -
2025-10-05 21:22:28,309 - CentralACGan - INFO -  flatten (Flatten)           (None, 256)                  0         ['embedding[0][0]']
2025-10-05 21:22:28,309 - CentralACGan - INFO -
2025-10-05 21:22:28,309 - CentralACGan - INFO -  concatenate (Concatenate)   (None, 512)                  0         ['input_1[0][0]',
2025-10-05 21:22:28,309 - CentralACGan - INFO -                                                                      'flatten[0][0]']
2025-10-05 21:22:28,309 - CentralACGan - INFO -
2025-10-05 21:22:28,309 - CentralACGan - INFO -  dense (Dense)               (None, 256)                  131328    ['concatenate[0][0]']
2025-10-05 21:22:28,309 - CentralACGan - INFO -
2025-10-05 21:22:28,309 - CentralACGan - INFO -  batch_normalization (Batch  (None, 256)                  1024      ['dense[0][0]']
2025-10-05 21:22:28,309 - CentralACGan - INFO -  Normalization)
2025-10-05 21:22:28,309 - CentralACGan - INFO -
2025-10-05 21:22:28,309 - CentralACGan - INFO -  leaky_re_lu (LeakyReLU)     (None, 256)                  0         ['batch_normalization[0][0]']
2025-10-05 21:22:28,309 - CentralACGan - INFO -
2025-10-05 21:22:28,309 - CentralACGan - INFO -  dense_1 (Dense)             (None, 512)                  131584    ['leaky_re_lu[0][0]']
2025-10-05 21:22:28,309 - CentralACGan - INFO -
2025-10-05 21:22:28,309 - CentralACGan - INFO -  batch_normalization_1 (Bat  (None, 512)                  2048      ['dense_1[0][0]']
2025-10-05 21:22:28,310 - CentralACGan - INFO -  chNormalization)
2025-10-05 21:22:28,310 - CentralACGan - INFO -
2025-10-05 21:22:28,310 - CentralACGan - INFO -  leaky_re_lu_1 (LeakyReLU)   (None, 512)                  0         ['batch_normalization_1[0][0]'
2025-10-05 21:22:28,310 - CentralACGan - INFO -                                                                     ]
2025-10-05 21:22:28,310 - CentralACGan - INFO -
2025-10-05 21:22:28,310 - CentralACGan - INFO -  dense_2 (Dense)             (None, 512)                  262656    ['leaky_re_lu_1[0][0]']
2025-10-05 21:22:28,310 - CentralACGan - INFO -
2025-10-05 21:22:28,310 - CentralACGan - INFO -  batch_normalization_2 (Bat  (None, 512)                  2048      ['dense_2[0][0]']
2025-10-05 21:22:28,310 - CentralACGan - INFO -  chNormalization)
2025-10-05 21:22:28,310 - CentralACGan - INFO -
2025-10-05 21:22:28,310 - CentralACGan - INFO -  leaky_re_lu_2 (LeakyReLU)   (None, 512)                  0         ['batch_normalization_2[0][0]'
2025-10-05 21:22:28,310 - CentralACGan - INFO -                                                                     ]
2025-10-05 21:22:28,310 - CentralACGan - INFO -
2025-10-05 21:22:28,310 - CentralACGan - INFO -  dense_3 (Dense)             (None, 256)                  131328    ['leaky_re_lu_2[0][0]']
2025-10-05 21:22:28,310 - CentralACGan - INFO -
2025-10-05 21:22:28,310 - CentralACGan - INFO -  batch_normalization_3 (Bat  (None, 256)                  1024      ['dense_3[0][0]']
2025-10-05 21:22:28,310 - CentralACGan - INFO -  chNormalization)
2025-10-05 21:22:28,310 - CentralACGan - INFO -
2025-10-05 21:22:28,310 - CentralACGan - INFO -  leaky_re_lu_3 (LeakyReLU)   (None, 256)                  0         ['batch_normalization_3[0][0]'
2025-10-05 21:22:28,310 - CentralACGan - INFO -                                                                     ]
2025-10-05 21:22:28,310 - CentralACGan - INFO -
2025-10-05 21:22:28,310 - CentralACGan - INFO -  dense_4 (Dense)             (None, 21)                   5397      ['leaky_re_lu_3[0][0]']
2025-10-05 21:22:28,310 - CentralACGan - INFO -
2025-10-05 21:22:28,311 - CentralACGan - INFO - ==================================================================================================
2025-10-05 21:22:28,311 - CentralACGan - INFO - Total params: 668949 (2.55 MB)
2025-10-05 21:22:28,311 - CentralACGan - INFO - Trainable params: 665877 (2.54 MB)
2025-10-05 21:22:28,311 - CentralACGan - INFO - Non-trainable params: 3072 (12.00 KB)
…
2025-10-05 21:22:28,313 - CentralACGan - INFO - __________________________________________________________________________________________________
2025-10-05 21:22:28,313 - CentralACGan - INFO -  Layer (type)                Output Shape                 Param #   Connected to
2025-10-05 21:22:28,313 - CentralACGan - INFO - ==================================================================================================
2025-10-05 21:22:28,313 - CentralACGan - INFO -  input_3 (InputLayer)        [(None, 21)]                 0         []
2025-10-05 21:22:28,313 - CentralACGan - INFO -
2025-10-05 21:22:28,313 - CentralACGan - INFO -  dense_5 (Dense)             (None, 512)                  11264     ['input_3[0][0]']
2025-10-05 21:22:28,314 - CentralACGan - INFO -
2025-10-05 21:22:28,314 - CentralACGan - INFO -  leaky_re_lu_4 (LeakyReLU)   (None, 512)                  0         ['dense_5[0][0]']
2025-10-05 21:22:28,314 - CentralACGan - INFO -
2025-10-05 21:22:28,314 - CentralACGan - INFO -  dropout (Dropout)           (None, 512)                  0         ['leaky_re_lu_4[0][0]']
2025-10-05 21:22:28,314 - CentralACGan - INFO -
2025-10-05 21:22:28,314 - CentralACGan - INFO -  dense_6 (Dense)             (None, 256)                  131328    ['dropout[0][0]']
2025-10-05 21:22:28,314 - CentralACGan - INFO -
2025-10-05 21:22:28,314 - CentralACGan - INFO -  leaky_re_lu_5 (LeakyReLU)   (None, 256)                  0         ['dense_6[0][0]']
2025-10-05 21:22:28,314 - CentralACGan - INFO -
2025-10-05 21:22:28,314 - CentralACGan - INFO -  dropout_1 (Dropout)         (None, 256)                  0         ['leaky_re_lu_5[0][0]']
2025-10-05 21:22:28,314 - CentralACGan - INFO -
2025-10-05 21:22:28,314 - CentralACGan - INFO -  dense_7 (Dense)             (None, 128)                  32896     ['dropout_1[0][0]']
2025-10-05 21:22:28,314 - CentralACGan - INFO -
2025-10-05 21:22:28,314 - CentralACGan - INFO -  batch_normalization_4 (Bat  (None, 128)                  512       ['dense_7[0][0]']
2025-10-05 21:22:28,314 - CentralACGan - INFO -  chNormalization)
2025-10-05 21:22:28,314 - CentralACGan - INFO -
2025-10-05 21:22:28,314 - CentralACGan - INFO -  leaky_re_lu_6 (LeakyReLU)   (None, 128)                  0         ['batch_normalization_4[0][0]'
2025-10-05 21:22:28,314 - CentralACGan - INFO -                                                                     ]
2025-10-05 21:22:28,315 - CentralACGan - INFO -
2025-10-05 21:22:28,315 - CentralACGan - INFO -  dense_8 (Dense)             (None, 64)                   8256      ['leaky_re_lu_6[0][0]']
2025-10-05 21:22:28,315 - CentralACGan - INFO -
2025-10-05 21:22:28,315 - CentralACGan - INFO -  dense_9 (Dense)             (None, 64)                   8256      ['leaky_re_lu_6[0][0]']
2025-10-05 21:22:28,315 - CentralACGan - INFO -
2025-10-05 21:22:28,315 - CentralACGan - INFO -  leaky_re_lu_7 (LeakyReLU)   (None, 64)                   0         ['dense_8[0][0]']
2025-10-05 21:22:28,315 - CentralACGan - INFO -
2025-10-05 21:22:28,315 - CentralACGan - INFO -  leaky_re_lu_8 (LeakyReLU)   (None, 64)                   0         ['dense_9[0][0]']
2025-10-05 21:22:28,315 - CentralACGan - INFO -
2025-10-05 21:22:28,315 - CentralACGan - INFO -  dropout_2 (Dropout)         (None, 64)                   0         ['leaky_re_lu_7[0][0]']
2025-10-05 21:22:28,315 - CentralACGan - INFO -
2025-10-05 21:22:28,315 - CentralACGan - INFO -  dropout_3 (Dropout)         (None, 64)                   0         ['leaky_re_lu_8[0][0]']
2025-10-05 21:22:28,315 - CentralACGan - INFO -
2025-10-05 21:22:28,315 - CentralACGan - INFO -  validity (Dense)            (None, 1)                    65        ['dropout_2[0][0]']
2025-10-05 21:22:28,315 - CentralACGan - INFO -
2025-10-05 21:22:28,315 - CentralACGan - INFO -  class (Dense)               (None, 2)                    130       ['dropout_3[0][0]']
2025-10-05 21:22:28,315 - CentralACGan - INFO -
2025-10-05 21:22:28,315 - CentralACGan - INFO - ==================================================================================================
2025-10-05 21:22:28,315 - CentralACGan - INFO - Total params: 192707 (752.76 KB)
2025-10-05 21:22:28,315 - CentralACGan - INFO - Trainable params: 192451 (751.76 KB)
2025-10-05 21:22:28,315 - CentralACGan - INFO - Non-trainable params: 256 (1.00 KB)
…
